python sac_cuda_norm_quantile.py --env Walker2d-v2
################# cpu
%%%%%%%%%%%%%%%%% cpu
[17, 256, 256, 6]
##### Actor SNN

PoPSpike:
 PopSpikeEncoderRegularSpike()
##### SNN_o/p_spikeactivity
 SpikeMLP(
  (hidden_layers): ModuleList(
    (0): Linear(in_features=170, out_features=256, bias=True)
    (1): Linear(in_features=256, out_features=256, bias=True)
  )
  (out_pop_layer): Linear(in_features=256, out_features=60, bias=True)
)
##### Actor_mean (mu)
 PopSpikeDecoder(
  (decoder): Conv1d(6, 6, kernel_size=(10,), stride=(1,), groups=6)
  (output_activation): Identity()
)
##### Actor_std (log_sigma)
 Sequential(
  (0): Linear(in_features=17, out_features=256, bias=True)
  (1): SELU()
  (2): Linear(in_features=256, out_features=256, bias=True)
  (3): SELU()
  (4): Linear(in_features=256, out_features=6, bias=True)
)
[17, 256, 256, 6]
##### Actor SNN

PoPSpike:
 PopSpikeEncoderRegularSpike()
##### SNN_o/p_spikeactivity
 SpikeMLP(
  (hidden_layers): ModuleList(
    (0): Linear(in_features=170, out_features=256, bias=True)
    (1): Linear(in_features=256, out_features=256, bias=True)
  )
  (out_pop_layer): Linear(in_features=256, out_features=60, bias=True)
)
##### Actor_mean (mu)
 PopSpikeDecoder(
  (decoder): Conv1d(6, 6, kernel_size=(10,), stride=(1,), groups=6)
  (output_activation): Identity()
)
##### Actor_std (log_sigma)
 Sequential(
  (0): Linear(in_features=17, out_features=256, bias=True)
  (1): SELU()
  (2): Linear(in_features=256, out_features=256, bias=True)
  (3): SELU()
  (4): Linear(in_features=256, out_features=6, bias=True)
)
[23, 256, 256, 4]
Sequential(
  (0): Linear(in_features=23, out_features=256, bias=True)
  (1): SELU()
  (2): Linear(in_features=256, out_features=256, bias=True)
  (3): SELU()
  (4): Linear(in_features=256, out_features=4, bias=True)
)
[23, 256, 256, 4]
Sequential(
  (0): Linear(in_features=23, out_features=256, bias=True)
  (1): SELU()
  (2): Linear(in_features=256, out_features=256, bias=True)
  (3): SELU()
  (4): Linear(in_features=256, out_features=4, bias=True)
)
Directory params Created
Directory  ./params/spike-sac_sac-popsan-Walker2d-v2-encoder-dim-10-decoder-dim-10  Created
Model:  0  Steps:  10000  Mean Reward:  [267.89330305 284.16612188] Selected aCtro  2
Model:  0  Steps:  20000  Mean Reward:  [181.34318901 181.08025677] Selected aCtro  1
Model:  0  Steps:  30000  Mean Reward:  [159.00426091 155.76470881] Selected aCtro  1
…
